examples/mnist_forecast_model.tflite (tflite, 6352 bytes, 3 tensors)

tfl.pseudo_qconst1 i1 [10, 200]
-2 -17 0 -1 -1 -41 -12 -25
-8 -12 0 -8 -16 -37 -15 -45
16 -8 4 -2 11 -4 -6 -39
6 -3 5 -1 7 -2 -31 -17
-40 0 2 -11 4 -45 -38 -18
7 -21 21 11 11 -45 12 9
-7 -3 26 7 -24 -30 7 16
-7 -3 -17 7 -11 7 1 13
-6 1 -18 -16 24 21 -3 -12
33 8 1 -79 23 -11 -3 -1
11 -31 -31 27 24 -72 14 23
-5 -47 -63 7 -14 -42 12 21
-80 -52 -25 -32 -70 -4 18 12
24 -59 -30 -15 -56 -1 8 -21
63 -30 -70 23 -4 -19 22 20
11 -61 -127 14 21 -12 21 27
8 -13 -22 -22 19 -33 28 19
-28 2 9 5 -29 -62 38 16
29 2 27 25 -37 8 -27 -7
50 5 -29 32 1 39 12 16
17 -23 -73 -23 31 3 18 29
2 14 -10 -70 24 7 42 26
-92 13 8 -5 26 12 0 -25
-54 9 25 22 10 13 -17 -3
-20 -8 -38 24 -9 18 5 10
-16 -7 -1 -37 22 5 -20 -16
18 -5 -37 -24 46 -3 25 40
27 -37 0 -11 28 -16 75 119
58 -55 2 6 -47 -40 83 55
91 -37 -6 33 -28 -67 28 29
-36 12 -9 -16 10 14 -52 -16
-9 2 -14 -30 -28 7 -30 -62
00000000: feef 00ff ffd7 f4e7 f8f4 00f8 f0db f1d3
00000010: 10f8 04fe 0bfc fad9 06fd 05ff 07fe e1ef
00000020: d800 02f5 04d3 daee 07eb 150b 0bd3 0c09
00000030: f9fd 1a07 e8e2 0710 f9fd ef07 f507 010d
00000040: fa01 eef0 1815 fdf4 2108 01b1 17f5 fdff
00000050: 0be1 e11b 18b8 0e17 fbd1 c107 f2d6 0c15
00000060: b0cc e7e0 bafc 120c 18c5 e2f1 c8ff 08eb
00000070: 3fe2 ba17 fced 1614 0bc3 810e 15f4 151b
00000080: 08f3 eaea 13df 1c13 e402 0905 e3c2 2610
00000090: 1d02 1b19 db08 e5f9 3205 e320 0127 0c10
000000a0: 11e9 b7e9 1f03 121d 020e f6ba 1807 2a1a
000000b0: a40d 08fb 1a0c 00e7 ca09 1916 0a0d effd
000000c0: ecf8 da18 f712 050a f0f9 ffdb 1605 ecf0
000000d0: 12fb dbe8 2efd 1928 1bdb 00f5 1cf0 4b77
000000e0: 3ac9 0206 d1d8 5337 5bdb fa21 e4bd 1c1d
000000f0: dc0c f7f0 0a0e ccf0 f702 f2e2 e407 e2c2

tfl.pseudo_qconst3 i1 [8, 3, 3, 4]
-83 -75 -39 17 -97 34 -70 26
-101 54 31 -34 21 -11 -28 1
-88 36 23 -7 -127 25 43 0
-34 33 -37 1 -56 65 23 -39
-106 84 82 32 3 -54 5 10
-28 -13 -35 30 13 -36 -14 -32
37 -97 32 -4 84 -25 65 3
50 26 68 10 16 -75 -54 19
18 -127 -33 34 22 -75 -38 26
-91 -19 -127 -3 -89 73 26 0
-110 34 16 23 118 -44 -47 -26
53 -34 -54 -40 3 -96 -115 34
75 -6 59 -24 28 31 15 7
60 -10 36 -26 -47 -46 -112 -31
9 -44 -92 -33 84 -12 4 39
-37 53 -61 0 58 53 59 -36
59 41 46 9 18 73 33 16
15 25 5 43 -127 -123 -43 35
6 -37 -8 -6 24 24 8 -13
-12 31 -10 -9 42 -16 30 -17
-6 16 10 -17 16 -63 -36 -19
-38 -20 -31 9 -95 -7 15 -18
82 -127 30 -9 19 41 16 -29
21 -31 22 -10 88 42 38 -30
-84 -22 -12 3 18 1 24 -18
49 14 63 -24 -36 -4 -85 9
22 -113 -66 11 9 -99 -127 -4
-16 36 24 -20 -52 72 -21 -22
-21 72 -37 16 -11 59 44 19
-127 10 -32 4 -11 19 7 -1
-63 21 21 1 -20 -25 12 15
-16 35 20 13 -40 78 15 19
00000000: adb5 d911 9f22 ba1a 9b36 1fde 15f5 e401
00000010: a824 17f9 8119 2b00 de21 db01 c841 17d9
00000020: 9654 5220 03ca 050a e4f3 dd1e 0ddc f2e0
00000030: 259f 20fc 54e7 4103 321a 440a 10b5 ca13
00000040: 1281 df22 16b5 da1a a5ed 81fd a749 1a00
00000050: 9222 1017 76d4 d1e6 35de cad8 03a0 8d22
00000060: 4bfa 3be8 1c1f 0f07 3cf6 24e6 d1d2 90e1
00000070: 09d4 a4df 54f4 0427 db35 c300 3a35 3bdc
00000080: 3b29 2e09 1249 2110 0f19 052b 8185 d523
00000090: 06db f8fa 1818 08f3 f41f f6f7 2af0 1eef
000000a0: fa10 0aef 10c1 dced daec e109 a1f9 0fee
000000b0: 5281 1ef7 1329 10e3 15e1 16f6 582a 26e2
000000c0: acea f403 1201 18ee 310e 3fe8 dcfc ab09
000000d0: 168f be0b 099d 81fc f024 18ec cc48 ebea
000000e0: eb48 db10 f53b 2c13 810a e004 f513 07ff
000000f0: c115 1501 ece7 0c0f f023 140d d84e 0f13

tfl.pseudo_qconst5 i1 [4, 3, 3, 1]
-124 -126 -125 40 -42 55 127 123
79 -127 -26 2 -34 -37 45 -46
2 62 18 31 46 20 56 101
127 72 125 -127 -119 -27 -113 -44
-111 -18 -97 -100
00000000: 8482 8328 d637 7f7b 4f81 e602 dedb 2dd2
00000010: 023e 121f 2e14 3865 7f48 7d81 89e5 8fd4
00000020: 91ee 9f9c
