examples/sine/sine.quant.onnx (onnx, 5185 bytes, 5 tensors)

sequential/dense_1/BiasAdd/ReadVariableOp:0 f4 [16]
0.37306154 0.103728704 0.08255218 0.0 -0.10189578 0.10834122 0.56259835 -0.069512025
-0.20186523 0.3003954 -0.006661356 0.36461663 0.102756545 -0.0036224169 -0.17763129 -0.34583345
00000000: ec01 bf3e b76f d43d 1e11 a93d 0000 0000
00000010: bcae d0bd 00e2 dd3d 7206 103f 525c 8ebd
00000020: c2b5 4ebe 6dcd 993e 8147 dabb 08af ba3e
00000030: 0672 d23d 1266 6dbb fae4 35be 1511 b1be

sequential/dense/BiasAdd/ReadVariableOp:0 f4 [16]
0.82381785 0.0 0.22040118 0.0 0.0 0.0 -0.8247585 0.18735898
-0.17827561 0.0 -0.13046722 0.0 0.09065112 0.0 0.15431952 -0.5164265
00000000: bae5 523f 0000 0000 d9b0 613e 0000 0000
00000010: 0000 0000 0000 0000 6023 53bf 08db 3f3e
00000020: e28d 36be 0000 0000 3399 05be 0000 0000
00000030: 4ba7 b93d 0000 0000 f005 1e3e 8734 04bf

sequential/dense/MatMul/ReadVariableOp:0_quantized u1 [1, 16]
112 116 139 84 0 102 206 255
205 0 248 92 138 67 147 191
00000000: 7074 8b54 0066 ceff cd00 f85c 8a43 93bf

sequential/dense_1/MatMul/ReadVariableOp:0_quantized u1 [16, 16]
253 228 218 89 163 246 207 142
81 220 136 255 166 133 37 0
143 111 146 97 92 168 102 104
135 102 150 152 121 109 178 162
135 138 140 169 99 135 200 189
143 169 92 155 170 129 127 79
97 126 130 136 144 90 150 153
134 98 94 128 170 143 145 166
131 129 151 178 95 167 140 110
133 132 108 155 170 156 147 123
127 158 92 161 162 166 139 130
178 102 124 174 154 126 139 150
78 80 87 155 172 125 53 92
201 123 110 52 151 94 120 202
161 145 165 172 95 163 9 154
168 64 173 138 72 136 179 133
129 117 141 114 100 152 109 161
173 100 98 133 52 166 149 159
136 126 159 114 176 137 145 90
181 128 158 103 176 128 96 136
100 176 179 94 114 143 50 159
167 115 105 120 127 96 125 181
145 157 152 158 129 125 101 110
102 112 89 114 143 178 166 179
160 160 108 94 148 111 217 102
157 131 171 164 97 95 80 67
113 180 116 140 91 91 103 163
133 165 121 93 97 116 99 127
150 150 163 104 130 114 201 173
144 140 92 174 110 123 147 157
21 126 123 120 117 64 135 128
131 141 119 83 143 174 142 214
00000000: fde4 da59 a3f6 cf8e 51dc 88ff a685 2500
00000010: 8f6f 9261 5ca8 6668 8766 9698 796d b2a2
00000020: 878a 8ca9 6387 c8bd 8fa9 5c9b aa81 7f4f
00000030: 617e 8288 905a 9699 8662 5e80 aa8f 91a6
00000040: 8381 97b2 5fa7 8c6e 8584 6c9b aa9c 937b
00000050: 7f9e 5ca1 a2a6 8b82 b266 7cae 9a7e 8b96
00000060: 4e50 579b ac7d 355c c97b 6e34 975e 78ca
00000070: a191 a5ac 5fa3 099a a840 ad8a 4888 b385
00000080: 8175 8d72 6498 6da1 ad64 6285 34a6 959f
00000090: 887e 9f72 b089 915a b580 9e67 b080 6088
000000a0: 64b0 b35e 728f 329f a773 6978 7f60 7db5
000000b0: 919d 989e 817d 656e 6670 5972 8fb2 a6b3
000000c0: a0a0 6c5e 946f d966 9d83 aba4 615f 5043
000000d0: 71b4 748c 5b5b 67a3 85a5 795d 6174 637f
000000e0: 9696 a368 8272 c9ad 908c 5cae 6e7b 939d
000000f0: 157e 7b78 7540 8780 838d 7753 8fae 8ed6

sequential/dense_2/MatMul/ReadVariableOp:0_quantized u1 [16, 1]
239 35 36 65 140 28 4 97
166 34 86 255 0 42 127 143
00000000: ef23 2441 8c1c 0461 a622 56ff 002a 7f8f
