examples/minst/minst_quantized.pth (torch, 278145 bytes, 9 tensors)

input_layer.weight._data i1 [256, 784]
000000 16 ea f5 14 d2 1a f5 16 05 f9 0b 01 0f ec fb fa
       22 -22 -11 20 -46 26 -11 22 5 -7 11 1 15 -20 -5 -6
000010 05 fe 27 0d ed e2 f7 ea ef 01 1a 18 d1 1b 0b 2b
       5 -2 39 13 -19 -30 -9 -22 -17 1 26 24 -47 27 11 43
000020 1d d4 d2 e7 26 f6 12 e8 2b ea 22 ff e6 16 e5 0b
       29 -44 -46 -25 38 -10 18 -24 43 -22 34 -1 -26 22 -27 11
000030 f1 f9 d1 e8 18 f3 2d 24 fc df 1b 0d e0 1d 1a 26
       -15 -7 -47 -24 24 -13 45 36 -4 -33 27 13 -32 29 26 38
000040 e2 f5 fb 03 d8 db 16 f1 12 00 0d 09 10 16 d3 16
       -30 -11 -5 3 -40 -37 22 -15 18 0 13 9 16 22 -45 22
000050 de db 01 f6 1a e3 d5 20 f7 19 0c d8 02 06 dc e2
       -34 -37 1 -10 26 -29 -43 32 -9 25 12 -40 2 6 -36 -30
000060 07 fb e0 e7 25 f6 1c 19 e4 da 2c 01 1f 08 0d 21
       7 -5 -32 -25 37 -10 28 25 -28 -38 44 1 31 8 13 33
000070 2b df 04 21 21 1b d9 d6 d6 fa 25 d8 07 d3 c0 ec
       43 -33 4 33 33 27 -39 -42 -42 -6 37 -40 7 -45 -64 -20
000080 16 29 e9 0f 27 22 24 29 22 0c df d7 e9 f9 e2 0f
       22 41 -23 15 39 34 36 41 34 12 -33 -41 -23 -7 -30 15
000090 0d f3 0a 00 0b 17 f0 2d fe 0d e2 f9 ea e6 23 ed
       13 -13 10 0 11 23 -16 45 -2 13 -30 -7 -22 -26 35 -19
0000a0 d7 10 1c 30 f1 09 ed f4 d9 e9 f1 12 05 09 26 1f
       -41 16 28 48 -15 9 -19 -12 -39 -23 -15 18 5 9 38 31
0000b0 1f 0e f6 4a 20 23 f8 08 e5 1a c3 ce f4 e1 0f f9
       31 14 -10 74 32 35 -8 8 -27 26 -61 -50 -12 -31 15 -7
0000c0 f4 06 21 de 14 1c 2c dc 03 d5 1d e8 24 1b 20 30
       -12 6 33 -34 20 28 44 -36 3 -43 29 -24 36 27 32 48
0000d0 3a 2c 07 0c d9 1a 1b 16 1f e3 ef 2d e2 2f dc de
       58 44 7 12 -39 26 27 22 31 -29 -17 45 -30 47 -36 -34
0000e0 15 dd f3 1d 1a 20 ea d1 36 fa 00 35 fa 17 0c c6
       21 -35 -13 29 26 32 -22 -47 54 -6 0 53 -6 23 12 -58
0000f0 d6 f0 02 ef e8 00 d5 e1 e5 29 2a ef 01 13 03 e4
       -42 -16 2 -17 -24 0 -43 -31 -27 41 42 -17 1 19 3 -28

input_layer.weight._scale f4 [256, 1]
000000 a0 81 48 3a 29 cf 7a 3a ea fe 31 3a ae 87 48 3a
       0.000764871 0.00095676124 0.00067899993 0.00076496124
000010 51 a3 45 3a 74 16 56 3a 0e 2b 09 3a 19 89 5c 3a
       0.00075392897 0.0008166798 0.0005232551 0.0008412763
000020 65 e8 0b 3a b8 1f 14 3a 3e 48 cc 39 79 e0 07 3a
       0.00053370587 0.00056504784 0.00038963737 0.00051832903
000030 c3 ad 2d 3a 0a 8b 4f 3a 24 74 8a 3a e0 55 09 3a
       0.0006625319 0.0007917142 0.0010563177 0.00052389316
000040 49 9b 06 3a 14 dc 66 3a bf 35 0f 3a be cf 4c 3a
       0.00051348336 0.0008806598 0.0005463026 0.00078129384
000050 60 9b 34 3a 96 8d 57 3a e5 6e 25 3a 3b 50 05 3a
       0.0006889608 0.0008222697 0.0006310775 0.00050855026
000060 3d b6 75 3a 06 11 4e 3a 2d e7 77 3a db 1a 1f 3a
       0.0009373164 0.0007860813 0.000945675 0.00060693704
000070 10 4a 57 3a 54 0c 24 3a 55 18 92 3a 46 31 5d 3a
       0.00082126353 0.00062579405 0.0011146168 0.0008437823
000080 d4 4d 11 3a 13 56 81 3a 2c 67 e5 39 84 70 23 3a
       0.00055429083 0.0009867571 0.00043755153 0.00062347227
000090 a1 b6 3d 3a 1c f8 17 3a d6 b1 51 3a 31 07 96 3a
       0.00072369917 0.0005797164 0.0007999217 0.0011446235
0000a0 e3 dc 21 3a 52 49 4c 3a e6 4a 14 3a 36 73 f2 39
       0.0006174577 0.0007792908 0.00056569127 0.00046243676
0000b0 21 b6 6c 3a f5 b8 2d 3a 7b 77 1f 3a 2e c8 25 3a
       0.0009029825 0.0006626987 0.00060831726 0.00063240796
0000c0 6c a5 c9 39 ef 1b b0 3a cb 5e fc 39 90 4a 31 3a
       0.00038460956 0.0013436059 0.00048135812 0.0006763125
0000d0 0d e6 96 3a cf da 7b 3a eb 8e 12 3a ef 16 0c 3a
       0.0011512652 0.0009607495 0.00055907544 0.00053439935
0000e0 aa 1d 38 3a ab a7 cb 39 5f 34 fc 39 eb 9b 1d 3a
       0.0007023463 0.000388441 0.00048104205 0.00060123083
0000f0 72 65 14 3a a0 08 ed 39 2a c6 33 3a dc 98 57 3a
       0.00056608685 0.0004521059 0.0006857837 0.0008224377
000100 09 df 91 3a ca 35 3e 3a b8 0d 30 3a 6e 61 fe 39
       0.0011129092 0.000725594 0.00067159114 0.00048519246
000110 04 b6 d4 39 d4 8d 0a 3a a7 a0 13 3a 12 1c 65 3a
       0.00040571403 0.0005285416 0.0005631544 0.00087398395
000120 a9 23 4e 3a 1c 57 39 3a c8 4b 90 3a 42 2d 28 3a
       0.000786359 0.000707017 0.0011008913 0.00064154353
000130 cb 1f 4f 3a 39 57 50 3a 9b 67 5f 3a dc fc 5e 3a
       0.0007901161 0.00079475675 0.00085222133 0.0008506307
000140 ef 04 2e 3a 25 25 e2 39 39 d6 55 3a da ea 28 3a
       0.00066383084 0.00043133754 0.0008157227 0.0006443687
000150 7e 2f 2d 3a f4 9c 27 3a 53 57 f8 39 8a 10 34 3a
       0.0006606503 0.0006393932 0.00047367308 0.00068689196
000160 4e eb 33 3a 10 97 ed 39 77 9b 2c 3a 44 8a 1d 3a
       0.0006863371 0.00045316713 0.00065844454 0.0006009678
000170 ef 97 21 3a e6 f6 01 3a 69 87 3e 3a bb f6 13 3a
       0.00061643025 0.000495775 0.00072681025 0.00056443707
000180 84 56 24 3a 72 f7 0d 3a 97 c0 56 3a 59 06 05 3a
       0.00062689953 0.00054155954 0.000819215 0.0005074493
000190 45 8b 19 3a 4d 77 0b 3a 80 c6 24 3a 10 1c 50 3a
       0.00058572396 0.00053202064 0.00062856823 0.0007938752
0001a0 b1 5a 4f 3a e4 03 f3 39 d9 e3 02 3a 0d 0c 5c 3a
       0.00079099374 0.0004635147 0.00049930584 0.00083941297
0001b0 4b e9 09 3a fd 5c 8f 3a ae 04 00 3a 39 f7 14 3a
       0.00052608986 0.0010937747 0.000488351 0.0005682591
0001c0 d4 54 22 3a d1 66 65 3a 4e 1f 1a 3a db 0a 60 3a
       0.000619245 0.00087509776 0.00058792986 0.00085465395
0001d0 df 2d 55 3a 31 e3 25 3a 1f 00 35 3a 16 85 2a 3a
       0.00081321405 0.00063281046 0.000690462 0.00065048167
0001e0 ea 43 09 3a 46 fa 02 3a 73 87 04 3a a9 67 bf 39
       0.0005236255 0.00049964 0.0005055584 0.00036507592
0001f0 8a 8d 53 3a 21 47 30 3a ad c9 18 3a 04 3b 5a 3a
       0.0008070102 0.0006724466 0.0005828392 0.0008324834
000200 6f a3 11 3a 91 c5 42 3a d0 8d 2f 3a 69 e6 6a 3a
       0.00055556645 0.00074299524 0.0006696852 0.00089607254
000210 12 9d 49 3a 5a 5d 26 3a 58 80 17 3a 6d 45 1f 3a
       0.0007690947 0.0006346308 0.00057793176 0.0006075714
000220 17 12 46 3a 64 1f 41 3a 12 d3 54 3a b9 38 e3 39
       0.0007555796 0.0007367043 0.000811861 0.00043339076
000230 d3 e2 13 3a b4 2b 03 3a ae 7e 46 3a a5 0c 47 3a
       0.00056414044 0.00050037657 0.00075719773 0.0007593132
000240 fd 87 56 3a 21 60 30 3a 6e d0 1a 3a a3 80 39 3a
       0.0008183716 0.00067281915 0.0005905692 0.00070763583
000250 e7 83 25 3a 41 e8 4e 3a 10 31 84 3a 3a 47 fc 39
       0.00063139055 0.0007892885 0.0010085423 0.00048118253
000260 4d 41 44 3a 0c c9 4e 3a 47 c6 ff 39 dc 04 1c 3a
       0.0007486537 0.00078882347 0.00048785118 0.0005951652
000270 5f 1c f5 39 73 00 2f 3a 0b 1b 07 3a 94 e7 04 3a
       0.0004675118 0.0006675787 0.0005153871 0.0005069908
000280 dd 83 e5 39 19 12 c7 39 0a 4a 10 3a 44 33 2e 3a
       0.0004377653 0.00037969722 0.0005504197 0.00066452124
000290 ef ba 38 3a 43 48 0e 3a 82 dd 18 3a 62 0e 1b 3a
       0.0007046898 0.0005427638 0.0005831347 0.0005914924
0002a0 22 37 3c 3a d2 e5 55 3a 84 90 4b 3a 5f 45 5a 3a
       0.0007179846 0.0008159551 0.000776537 0.0008326377
0002b0 d8 f7 2b 3a a2 2a a6 39 08 47 48 3a 6c b3 a1 39
       0.0006560064 0.0003169375 0.0007639979 0.00030841993
0002c0 76 78 6a 3a 2b 82 1c 3a a7 b8 0a 3a 3b 05 1d 3a
       0.00089443417 0.0005970324 0.00052917976 0.0005989854
0002d0 e0 07 2f 3a 25 f6 29 3a 39 65 01 3a 28 4d 9c 3a
       0.00066768937 0.0006483517 0.0004936043 0.001192485
0002e0 92 9f 39 3a fc 89 5d 3a eb 5b 3c 3a 38 cc e7 39
       0.0007080968 0.0008451042 0.00071853277 0.00044211908
0002f0 72 92 3b 3a c4 8e 32 3a a3 3a 60 3a 9b e9 8d 3a
       0.0007155306 0.0006811435 0.00085536594 0.0010827066
000300 27 13 57 3a 99 bb 30 3a b4 14 60 3a d9 d0 1f 3a
       0.0008204453 0.00067418214 0.0008548007 0.00060964894
000310 08 b5 24 3a 51 7c 27 3a d3 a0 3a 3a 0f 57 81 3a
       0.0006283079 0.0006389069 0.00071193016 0.0009867864
000320 b8 ea 83 3a db d5 26 3a b2 8e 3d 3a 4c 8b 16 3a
       0.0010064458 0.00063642644 0.0007231041 0.0005742803
000330 ee 60 2b 3a fe 82 77 3a 5a 98 8b 3a ba 0e 5c 3a
       0.0006537576 0.00094418216 0.0010650263 0.00083945284
000340 39 1d 03 3a 62 27 32 3a 67 d3 1b 3a 81 38 56 3a
       0.0005001608 0.00067960296 0.0005944282 0.0008171872
000350 c6 c2 30 3a 38 4c 54 3a 25 ad 2d 3a 8a 47 06 3a
       0.00067428907 0.00080985157 0.0006625227 0.00051223545
000360 a9 43 47 3a 07 a5 04 3a ea e3 2a 3a 5f ff f3 39
       0.00076013297 0.00050599914 0.0006518947 0.00046538838
000370 b5 10 65 3a af df 39 3a 1c a1 80 3a 66 9e 47 3a
       0.0008738146 0.00070905214 0.0009813639 0.0007614851
000380 d5 e7 0c 3a a7 14 97 39 02 6b 5d 3a 26 95 15 3a
       0.0005375122 0.00028816352 0.00084464264 0.0005706124
000390 df 30 86 3a 12 0f 1b 3a fc 00 36 3a 26 43 43 3a
       0.0010237953 0.00059150264 0.00069428957 0.00074486656
0003a0 44 1f 5d 3a 70 aa 30 3a b3 36 4b 3a cb 24 9a 3a
       0.000843514 0.00067392644 0.0007751986 0.0011760233
0003b0 e7 c7 ba 39 f3 4c 1f 3a 65 14 0d 3a 03 7a 3c 3a
       0.00035625623 0.0006076835 0.0005381762 0.0007189812
0003c0 fb 85 4c 3a 18 44 30 3a 16 9a 39 3a 77 0e 45 3a
       0.0007801947 0.0006724014 0.00070801505 0.0007517109
0003d0 a8 79 12 3a 5f 1a fe 39 0f e2 c3 39 96 b1 5d 3a
       0.0005587586 0.00048466303 0.00037361725 0.00084569433
0003e0 c4 02 4c 3a 3f 20 55 3a c5 36 23 3a 90 e7 12 3a
       0.00077823945 0.000813011 0.0006226118 0.00056039635
0003f0 72 7a 0d 3a bd 2c 98 3a b9 53 e9 39 b6 25 64 3a
       0.0005396969 0.0011610013 0.000445036 0.0008703129

input_layer.bias f4 [256]
000000 c0 48 04 3c d1 d9 b4 bc 02 61 d3 3c 26 62 65 bc
       0.008073986 -0.02207652 0.025803093 -0.014000451
000010 7d 2d a4 3c 2a a7 68 bb 19 3e cb 3c 14 1d c1 3c
       0.020041222 -0.0035500028 0.024809884 0.023573436
000020 d3 58 9d 3c d1 e7 05 3d ef 62 ea bc 47 54 72 ba
       0.019207394 0.03269178 -0.028611628 -0.00092441257
000030 74 19 bd bb 6d c8 a1 3c ff 10 c7 bc de 05 f0 3c
       -0.0057708565 0.01974889 -0.024300097 0.029299673
000040 cc 17 81 bb c7 64 e9 3c 1e a9 b8 bb 3f 6c 11 bc
       -0.0039396044 0.028490437 -0.0056353947 -0.008875906
000050 82 66 36 bc 28 09 1f 3d 6e 8f 53 3b 91 8a 8f 3c
       -0.011132838 0.03882709 0.0032281536 0.017522128
000060 f7 2d 2f bc 74 68 05 3c 09 fb 99 3b b4 b8 1a bc
       -0.010692111 0.008142579 0.004699115 -0.009443451
000070 80 e3 b9 bc 1e 8f 4c bc 17 8d 48 3b 69 53 87 bc
       -0.022691488 -0.012485294 0.0030601674 -0.016519265
000080 01 dd 7c bc 8a c4 17 3d 74 3e c6 3c b0 15 f1 3a
       -0.015433551 0.03705267 0.024199702 0.0018393304
000090 c2 65 c5 bb 90 85 da 3c c9 3c 92 bc db c8 e6 3c
       -0.0060240934 0.026675016 -0.01785125 0.028171947
0000a0 91 a2 8d 3c 85 ca 34 3c 24 6c 99 bb 6a 5c d3 3b
       0.017289432 0.011034613 -0.004682081 0.0064502256
0000b0 e4 82 25 bc 60 2e 8f bc f3 09 47 ba 8d ef 6f bc
       -0.010102008 -0.017478168 -0.000759273 -0.014644516
0000c0 6f 23 3a bc 8b 36 4c ba 8e 27 80 bb bd 0d 79 3b
       -0.011360987 -0.000779011 -0.0039109653 0.0038002573
0000d0 25 1a 38 3b 0e b9 ce bc 03 d8 11 bd cb 80 17 3d
       0.0028091755 -0.025234725 -0.035606395 0.03698806
0000e0 14 a0 07 3d 37 30 75 bc 40 ba ea 3c ec 5c 0e 3a
       0.033111647 -0.014965109 0.028653264 0.00054307166
0000f0 e9 34 c7 3c 5a 2b 7f 3b 6b 7b 32 bc 63 ee 08 3d
       0.024317222 0.0038935752 -0.010893683 0.03343047
000100 ab da b1 b9 ce 3b b0 bc 2e 57 86 bc 18 b4 1c bc
       -0.0003392299 -0.021512892 -0.016398992 -0.009564422
000110 ef 4f 12 3d ea 90 00 3c 09 ac 0c bc 37 73 ab bc
       0.035720762 0.00784705 -0.008585938 -0.020928962
000120 ba 9f e1 bb c5 85 50 3c 07 4e 30 bc e3 93 bd 38
       -0.006885496 0.012727206 -0.010760791 9.039768e-05
000130 f0 e6 d0 3c 88 3d e2 3c 38 fa 7d 3c 8a e7 ed bc
       0.025500745 0.027617231 0.015501551 -0.02904107
000140 7f 83 9c bc 20 89 bd 3c 41 d1 3c 3d 61 83 ee bc
       -0.019105671 0.023136675 0.046097998 -0.02911538
000150 06 cc 14 3a d3 bb 9b bb 9c b0 e7 bc 17 f7 13 bc
       0.0005676154 -0.004752615 -0.028282456 -0.009031079
000160 fc 7f c3 3c fa 87 c7 3c df a9 13 bd 5e 36 19 bd
       0.023864739 0.02435683 -0.036050674 -0.037405364
000170 47 59 92 3b 1a c0 d2 3c ab a4 c2 bc dd ee fb bc
       0.004466209 0.025726367 -0.02376016 -0.030753547
000180 8e 10 0f bc 97 31 00 bd 2b 96 19 bd d1 c1 c0 bb
       -0.008731974 -0.031297293 -0.037496727 -0.0058824797
000190 b6 7e e6 38 a5 57 45 bb 43 3e e2 3c b5 93 08 bd
       0.000109908564 -0.0030112055 0.02761758 -0.03334399
0001a0 68 b7 2d 3b a9 62 a8 bc 68 4a 40 bb 33 7b c0 3c
       0.0026507024 -0.020554857 -0.0029341225 0.023496246
0001b0 4c 69 9c 3c 01 54 b2 3a b6 b3 2a 3c 2b b7 02 3d
       0.019093178 0.0013605357 0.010418823 0.031912964
0001c0 84 26 e8 3c fc dd aa 3c d6 38 fc 3c 7a 5b c4 3c
       0.028338678 0.020857804 0.03078882 0.0239694
0001d0 4e aa c6 3c 08 6d cb 3c 42 16 ae bc fb cb 76 bc
       0.02425113 0.024832264 -0.021250848 -0.015063281
0001e0 51 fd 0d bd 4f 46 9b 3c 47 3a 8c 3b fb 4f 78 bc
       -0.03466541 0.018954424 0.004279408 -0.015155788
0001f0 00 b2 0d 3b 1d 0b b2 3c a1 a3 9b bb 35 11 32 bb
       0.002162099 0.021733815 -0.0047497307 -0.00271709
000200 b2 ba c0 bc 4c 8b 9c 3c 52 99 a4 3c ce 61 d8 3c
       -0.023526523 0.01910939 0.02009264 0.026413824
000210 a3 83 d7 3b 97 ef 50 bc 90 8c 7b bc 1c 6d 03 bd
       0.0065769716 -0.012752435 -0.015353337 -0.032086477
000220 ba 24 03 bd 49 3e aa 3b 52 be 1e 3c cc 57 01 39
       -0.032017447 0.0051954133 0.009688931 0.00012335106
000230 90 59 3c bc 63 2f b2 3a 3d bc c5 bc 66 28 7b 3c
       -0.011495963 0.0013594445 -0.02413761 0.015329456
000240 17 ab c4 bb 6a 5c 0b 3d 9c 44 e2 bb 47 9e 17 ba
       -0.006001841 0.03402368 -0.0069051515 -0.0005783778
000250 25 e3 e1 bb 74 f9 d9 3c d8 44 ae bc 4d 93 a4 3c
       -0.006893533 0.026608206 -0.021273062 0.02008977
000260 c5 be 16 3d 09 ce c0 bc 90 a2 0f bc f3 97 9a bb
       0.036803026 -0.023535745 -0.008766785 -0.004717821
000270 97 0a 8b 3c cb d4 a7 3c f0 8b 14 3d d1 a2 06 bc
       0.016972823 0.02048721 0.036266267 -0.008217529
000280 ad bf b2 3c 5d ee 71 3c 7a 40 5f bc 96 37 fc bc
       0.021819914 0.014766303 -0.013626212 -0.030788224
000290 65 60 31 bc 0c 53 0d 3d a9 14 dc 3c 74 0a a5 3c
       -0.010826205 0.034503028 0.02686532 0.020146586
0002a0 62 d8 93 3c d8 8b 10 bc 00 ec a7 3a ef 40 0c 3d
       0.018047515 -0.008822404 0.0012811422 0.034241613
0002b0 96 15 da bc 94 c6 a1 ba 2c 18 f5 3c 7d 29 92 3a
       -0.026621621 -0.0012342506 0.029918753 0.001115128
0002c0 3e 97 f6 3c de d4 88 bb 8b 4c f6 ba 9a b8 a9 3c
       0.030101415 -0.0041757664 -0.0018791122 0.020717908
0002d0 14 be 92 bc 48 c4 58 3c 3d b4 8b 3b 63 c2 21 3c
       -0.017912902 0.013230391 0.0042634294 0.009873006
0002e0 51 e8 39 bb 75 45 89 bc 7a 11 0b b9 29 11 1b 3b
       -0.002836723 -0.016756753 -0.00013262584 0.0023661351
0002f0 be 21 cc 3b d8 13 01 3d 00 5a 2a 3d 09 1b 3f 3c
       0.0062296083 0.031513065 0.041589737 0.0116641605
000300 bc e2 43 bc d7 33 cd bc a6 6a d6 ba 9e c2 fe 3c
       -0.011955913 -0.025049133 -0.0016358688 0.03109866
000310 eb 57 0b 3d 29 55 f2 3c 5e 59 44 3a ae a4 09 3d
       0.034019392 0.029581623 0.00074901234 0.033604316
000320 ea b7 2d 3d ac 8d 84 3b 54 5f e2 3c 1a 8a 5a bc
       0.042411722 0.004045209 0.027633347 -0.01333859
000330 54 90 2f bd 2a cd 82 bc 3e 88 af 3b b6 ee 88 bc
       -0.04286225 -0.01596697 0.0053568175 -0.016715389
000340 7c 54 5d bc bc fa d1 3c 2e 42 d5 3c b6 ab ff 3c
       -0.013508912 0.025632255 0.026032533 0.031209808
000350 ac c3 a3 3b 8c eb 26 3d 23 92 f4 bb cc 6f 72 3b
       0.004997691 0.04075198 -0.00746371 0.0036992906
000360 bf b8 56 bc ea 03 b3 bc 27 1c f8 3a be 03 89 bc
       -0.01310557 -0.021852452 0.0018929288 -0.016725417
000370 d7 67 b4 3c 50 0c 9c 3c a6 0c ac 3c 4f b6 9f bc
       0.022022171 0.01904884 0.021002125 -0.019496111
000380 8b b1 ec 3b fc 26 88 bc 03 1e b3 bc d7 a3 31 bc
       0.007223313 -0.016620152 -0.021864897 -0.010842285
000390 2e 8e 8d bb 61 31 62 bc d0 5d e0 bc 94 8e da bc
       -0.0043199277 -0.013805718 -0.027388483 -0.026679315
0003a0 04 67 f1 3c 96 4f 12 bd 37 57 cc 3b cd d3 22 bc
       0.029468067 -0.03572043 0.0062359828 -0.009938193
0003b0 0c 36 93 bc ca e0 af 3c a8 73 d9 3c 8e 01 2f 3d
       -0.017970107 0.021469492 0.026544407 0.042726092
0003c0 fd 11 91 bc 67 19 3b bc d8 9e 13 3d b7 ff ba 3c
       -0.017708773 -0.011419631 0.036040157 0.022827012
0003d0 7d be 93 3b a9 4e c8 3c 89 b6 87 bc 6e d5 8b 3c
       0.004508792 0.02445157 -0.016566532 0.017069545
0003e0 bb 20 7b 3c dd fa 1e 3c 50 1c 4a 3a 88 08 bc bc
       0.015327628 0.009703365 0.00077099074 -0.022953287
0003f0 6a 87 18 3d b1 b4 ef 3c 71 79 4d 3b 97 d3 4f 3b
       0.037238516 0.029260965 0.0031352902 0.003171181

mid_layer.weight._data i1 [256, 256]
000000 2b f9 24 b6 60 29 c9 38 d5 14 e1 5a d7 1a 3f 11
       43 -7 36 -74 96 41 -55 56 -43 20 -31 90 -41 26 63 17
000010 2a 15 d7 ed fa d4 c2 48 c1 e6 b7 f4 ca 53 d3 52
       42 21 -41 -19 -6 -44 -62 72 -63 -26 -73 -12 -54 83 -45 82
000020 ac ba c7 dd cd 05 11 39 cf 30 ec e6 d5 e0 dc 28
       -84 -70 -57 -35 -51 5 17 57 -49 48 -20 -26 -43 -32 -36 40
000030 f0 81 c1 0b 29 3b e9 ff 53 22 1f bc 39 c5 69 05
       -16 -127 -63 11 41 59 -23 -1 83 34 31 -68 57 -59 105 5
000040 0a 0d 2e ea 21 24 d4 ca 08 eb cb 1f d4 b6 05 20
       10 13 46 -22 33 36 -44 -54 8 -21 -53 31 -44 -74 5 32
000050 42 05 bc d5 38 d0 0c 10 d0 e3 ee 0d 17 31 0e 26
       66 5 -68 -43 56 -48 12 16 -48 -29 -18 13 23 49 14 38
000060 e0 f0 27 1c 40 35 16 f9 23 d2 e6 d2 10 cf f7 39
       -32 -16 39 28 64 53 22 -7 35 -46 -26 -46 16 -49 -9 57
000070 38 d6 04 01 f1 4c 17 af cb 28 21 1a b9 16 c0 13
       56 -42 4 1 -15 76 23 -81 -53 40 33 26 -71 22 -64 19
000080 be b9 00 ca f4 ea 4e 47 2d de 28 f0 e9 db 14 e5
       -66 -71 0 -54 -12 -22 78 71 45 -34 40 -16 -23 -37 20 -27
000090 b1 69 c7 02 fa 14 32 dd 19 38 da d3 22 50 45 c0
       -79 105 -57 2 -6 20 50 -35 25 56 -38 -45 34 80 69 -64
0000a0 1c 1b 4a f2 26 d7 eb 0e fa e6 e4 41 17 43 bc d2
       28 27 74 -14 38 -41 -21 14 -6 -26 -28 65 23 67 -68 -46
0000b0 b6 bd e1 2f e8 27 e9 07 d9 1d 08 17 28 b4 fd 1a
       -74 -67 -31 47 -24 39 -23 7 -39 29 8 23 40 -76 -3 26
0000c0 b4 21 e0 2c fb 14 18 c1 2d 1c 22 4e d8 e2 d6 16
       -76 33 -32 44 -5 20 24 -63 45 28 34 78 -40 -30 -42 22
0000d0 f5 3b 23 22 fd 10 cb 0e 9f cd c1 e9 31 12 e1 3b
       -11 59 35 34 -3 16 -53 14 -97 -51 -63 -23 49 18 -31 59
0000e0 37 fd c7 ff f4 2d 13 b1 ef c7 37 fe 44 3d fa dd
       55 -3 -57 -1 -12 45 19 -79 -17 -57 55 -2 68 61 -6 -35
0000f0 2f 14 dc f2 ee e2 e5 b9 1f 48 17 0e 2c 3d c0 cc
       47 20 -36 -14 -18 -30 -27 -71 31 72 23 14 44 61 -64 -52

mid_layer.weight._scale f4 [256, 1]
000000 0c 49 6a 3a 86 98 01 3a a8 8a 34 3a a0 5a 80 3a
       0.00089372764 0.0004943687 0.00068871165 0.0009792633
000010 6f fd 74 3a 3d d1 5a 3a e9 c9 0d 3a b6 a3 36 3a
       0.0009345626 0.0008347219 0.000540881 0.0006967144
000020 de 64 88 3a 89 eb be 3a 83 87 24 3a 17 d7 03 3a
       0.0010406037 0.0014566045 0.00062762963 0.00050293043
000030 a8 da 63 3a ee c3 5c 3a 5c ab 39 3a b3 f4 63 3a
       0.0008691945 0.000842153 0.00070827245 0.0008695826
000040 b4 26 64 3a 7e af 66 3a fd 6b 40 3a f0 c4 69 3a
       0.0008703277 0.0008799954 0.000734031 0.00089175906
000050 7a f4 63 3a 60 82 50 3a d9 ea 70 3a 73 84 3c 3a
       0.00086957926 0.00079539977 0.00091902685 0.00071913673
000060 50 37 61 3a 67 5b 8c 3a 74 00 49 3a 0e 42 8a 3a
       0.0008591311 0.0010708392 0.0007667609 0.001054825
000070 55 41 51 3a b9 ac 94 3a f3 40 4d 3a 2a 1f 74 3a
       0.00079824525 0.0011342979 0.00078298076 0.0009312505
000080 3f 4e 1c 3a ad c9 51 3a 4a ff 81 3a 30 b2 58 3a
       0.00059625873 0.00080027693 0.0009918001 0.0008266298
000090 80 62 04 3a 36 ae 49 3a 43 51 4b 3a 4a 0c 79 3a
       0.0005050078 0.0007693501 0.00077559444 0.00095004274
0000a0 47 62 85 3a d0 8d 88 3a 21 aa 8b 3a 9e d1 46 3a
       0.0010176384 0.001041824 0.0010655561 0.0007584336
0000b0 96 ad 5d 3a 1c c1 8a 3a 67 59 91 3a ce d1 1a 3a
       0.0008456347 0.0010586116 0.0011089266 0.0005905897
0000c0 41 8e 72 3a ce 71 fe 39 8f 8c 52 3a b9 0e 93 3a
       0.0009252765 0.00048531446 0.0008031809 0.0011219598
0000d0 a1 c2 3f 3a 69 a9 5d 3a a2 33 51 3a 3f 26 95 3a
       0.0007315074 0.0008455725 0.0007980411 0.0011379196
0000e0 39 ff 5a 3a 2c 43 89 3a 00 b8 65 3a 56 84 45 3a
       0.0008354071 0.0010472289 0.0008763075 0.0007534673
0000f0 50 bf 11 3a 46 cf 5c 3a 95 7a 6d 3a 98 0b 00 3a
       0.0005559819 0.000842322 0.00090590987 0.000488454
000100 f7 2e 68 3a a0 36 21 3a 2d 02 4b 3a c4 33 87 3a
       0.0008857096 0.00061498024 0.00077441597 0.001031511
000110 c1 b9 6a 3a 90 d5 30 3a a8 58 4d 3a 72 07 86 3a
       0.0008954071 0.00067456905 0.000783334 0.0010225608
000120 29 74 76 3a e3 7b 60 3a 15 95 55 3a e7 05 75 3a
       0.00094014645 0.00085633824 0.000814752 0.0009346888
000130 81 2a 31 3a 5e f8 5a 3a 0c 21 37 3a 95 03 74 3a
       0.0006758348 0.00083530496 0.00069858204 0.0009308395
000140 5b 62 15 3a 0c fb 50 3a 8c 48 02 3a 12 3b 4a 3a
       0.0005698555 0.0007971979 0.0004969917 0.00077144906
000150 64 25 74 3a be 5b 07 3a 2a ad 4a 3a 95 f0 32 3a
       0.0009313433 0.0005163512 0.0007731492 0.00068260106
000160 87 25 56 3a 4d 10 4a 3a c3 20 38 3a 70 c8 74 3a
       0.0008169044 0.00077081175 0.0007023925 0.0009337729
000170 58 a0 86 3a e9 d5 52 3a 60 be 83 3a b7 29 20 3a
       0.0010271175 0.00080427394 0.0010051243 0.00061097316
000180 44 f8 7b 3a 84 ba 03 3a 71 75 33 3a f0 46 8c 3a
       0.00096118846 0.00050250464 0.0006845808 0.0010702293
000190 63 b8 4b 3a e1 da 31 3a db dd 4a 3a 96 85 80 3a
       0.0007771311 0.00067846297 0.00077387475 0.0009805437
0001a0 e9 11 8b 3a 55 46 4f 3a 52 49 0c 3a 20 07 89 3a
       0.0010610196 0.00079069036 0.0005351502 0.0010454394
0001b0 5a 3f 4c 3a 88 55 70 3a fb 8c 81 3a 1a fb 16 3a
       0.00077914225 0.00091680186 0.0009883934 0.0005759463
0001c0 16 01 6b 3a d5 f3 88 3a a2 2c 4c 3a eb 00 4d 3a
       0.00089647004 0.0010448644 0.0007788633 0.0007820266
0001d0 35 26 3d 3a 53 73 99 3a f6 99 0b 3a 79 e1 00 3a
       0.0007215471 0.0011707343 0.0005325371 0.00049164105
0001e0 17 23 5f 3a 5d 0e 88 3a 49 1a 79 3a 9b 3c 5d 3a
       0.00085120037 0.0010380257 0.0009502513 0.0008439512
0001f0 d6 97 09 3a 73 e5 3f 3a 0e 44 7c 3a e4 4a 67 3a
       0.00052487606 0.00073202624 0.0009623178 0.000882311
000200 b9 59 3f 3a dd 73 57 3a 22 1f 41 3a 0a 75 7f 3a
       0.00072994415 0.0008218864 0.0007367005 0.0009744918
000210 da 1d 79 3a 16 80 37 3a 48 c5 41 3a f0 4b 81 3a
       0.00095030444 0.0006999982 0.0007391763 0.000986455
000220 8d a0 66 3a f2 eb 6d 3a 5e bb 0f 3a e3 b2 79 3a
       0.00087977276 0.0009075991 0.0005482937 0.00095252524
000230 61 f3 84 3a 20 ae 57 3a c6 53 01 3a 4a 1c 3c 3a
       0.0010143333 0.0008227546 0.00049334427 0.0007175846
000240 5a cb 40 3a 1d e1 55 3a 6c 9e 5f 3a 0d 4a 81 3a
       0.00073545205 0.00081588497 0.00085303816 0.0009863988
000250 5c 78 74 3a 78 01 41 3a b0 96 5f 3a e0 a4 05 3a
       0.0009325796 0.00073625846 0.0008529229 0.00050981157
000260 a4 ff 81 3a 0e 96 68 3a 3c 86 79 3a 6b 31 71 3a
       0.0009918106 0.00088724575 0.00095185987 0.0009200784
000270 87 7e 68 3a c5 40 00 3a 0f 78 84 3a 9f 1a 57 3a
       0.00088689517 0.0004892464 0.0010106581 0.0008205566
000280 33 b6 06 3a 11 db 57 3a c4 05 41 3a 34 23 36 3a
       0.0005138844 0.00082342426 0.0007363225 0.00069479947
000290 a0 7d 0a 3a 43 d7 73 3a 01 69 09 3a 97 26 73 3a
       0.0005283002 0.0009301791 0.0005241782 0.00092754647
0002a0 8e 16 67 3a fc 57 4d 3a 35 d8 44 3a 12 9f 70 3a
       0.00088153116 0.000783324 0.0007509024 0.0009178977
0002b0 a4 a0 4c 3a 3c 5c 48 3a ce 68 61 3a 39 f6 31 3a
       0.000780592 0.00076431385 0.0008598686 0.0006788704
0002c0 b6 2a 4d 3a e5 13 5c 3a f1 3a 8d 3a 4b cd 77 3a
       0.0007826494 0.00083952985 0.0010775012 0.0009452893
0002d0 31 59 07 3a 5e ac 60 3a 9d d0 4f 3a cc 05 53 3a
       0.0005163132 0.00085706066 0.0007927509 0.0008049875
0002e0 1e b1 69 3a 33 27 68 3a c1 d9 2c 3a 9d 8c 94 3a
       0.0008914637 0.0008855939 0.0006593727 0.001133341
0002f0 da 8c 03 3a 4c 56 48 3a 0f 31 6b 3a db f8 1e 3a
       0.0005018242 0.0007642254 0.0008971849 0.0006064304
000300 42 aa 61 3a 7b ee 6f 3a d4 25 06 3a 2e c2 36 3a
       0.0008608439 0.0009152663 0.0005117331 0.0006971684
000310 4c 59 60 3a 43 05 86 3a 9c 8a 67 3a 6b 90 53 3a
       0.0008558228 0.0010224957 0.0008832605 0.0008070531
000320 05 73 68 3a ab 5c 70 3a ba 57 75 3a 1b 1f 8a 3a
       0.0008867237 0.0009169082 0.00093590806 0.0010537835
000330 db 00 37 3a 88 40 71 3a b6 c6 02 3a 99 61 91 3a
       0.00069810235 0.00092030363 0.00049887167 0.0011091708
000340 70 bb 5e 3a 5a 2a 36 3a aa 73 5e 3a 4d e5 69 3a
       0.00084965583 0.000694906 0.0008485863 0.0008922413
000350 6e 6e 4b 3a 37 c1 3a 3a 5a 56 49 3a 7b a1 80 3a
       0.0007760291 0.0007124128 0.0007680409 0.000981375
000360 83 f2 88 3a 26 26 8a 3a 59 73 78 3a 34 e9 42 3a
       0.0010448251 0.0010539934 0.00094776374 0.00074352627
000370 05 93 6e 3a 37 41 68 3a 88 39 62 3a 0c 21 80 3a
       0.0009100887 0.00088598154 0.00086297886 0.0009775474
000380 da 9b 82 3a 25 72 45 3a b5 38 55 3a 24 94 6f 3a
       0.000996466 0.00075319625 0.0008133755 0.0009139201
000390 93 74 34 3a b3 c6 5e 3a 02 a5 50 3a f0 3b 4c 3a
       0.0006883826 0.00084982364 0.00079591584 0.0007790914
0003a0 33 58 5d 3a 51 62 5b 3a cb ea 50 3a 70 a8 81 3a
       0.00084436237 0.00083688373 0.0007969557 0.0009892117
0003b0 06 94 87 3a bb db 7a 3a 65 08 20 3a 56 99 65 3a
       0.0010343797 0.00095694856 0.00061047665 0.00087585056
0003c0 7a 49 55 3a b6 97 66 3a 75 04 78 3a 15 9e 73 3a
       0.0008136254 0.00087964104 0.00094611134 0.00092932704
0003d0 f9 de 71 3a 15 2e 77 3a 5d 23 60 3a 8b c8 85 3a
       0.0009226646 0.0009429169 0.00085501914 0.0010206861
0003e0 c8 71 40 3a fd 46 7c 3a 45 0c 2a 3a 7e 6b 57 3a
       0.00073411735 0.0009623615 0.00064868137 0.00082176167
0003f0 23 87 68 3a 9f d7 85 3a ed cb 5e 3a 3e a3 70 3a
       0.00088702346 0.0010211355 0.0008499015 0.00091795984

mid_layer.bias f4 [256]
000000 04 18 41 bd f6 2c 59 3d be 27 01 bd 06 2f 1d 3d
       -0.047142044 0.053021394 -0.03153204 0.038374923
000010 cc a2 19 bd 60 34 95 bc 1d 21 07 bd a8 bc 81 3c
       -0.03750877 -0.01821345 -0.032990564 0.015837029
000020 cb 62 ae 3c 79 f6 7f 3d d5 89 82 3d f4 45 03 3d
       0.021287343 0.062490914 0.063739456 0.032049134
000030 3c 25 28 bc 7c 09 b7 bc 45 c3 da 3b 9d 90 c2 bc
       -0.010262784 -0.02234339 0.00667611 -0.023750598
000040 f7 80 4c ba cc 7c 88 3d ef 67 69 3d 81 99 9a bc
       -0.00078011997 0.06664428 0.056983884 -0.018872024
000050 c4 ce ed 3b 80 87 36 bd 9e 6e 08 3d 20 3f 57 3d
       0.0072573144 -0.044562817 0.033308618 0.052550435
000060 c8 34 73 3d 55 42 ff bc 1b 72 ea bc 48 c4 a1 bc
       0.059376508 -0.03115956 -0.028618863 -0.019746915
000070 f0 f5 70 3d db a6 71 3d fe c4 c2 bb 5b d3 9b 3d
       0.058828294 0.058997016 -0.0059438935 0.07608672
000080 5f 79 69 bd 38 46 0c bd cb bc 83 3c 17 61 4a bd
       -0.057000514 -0.034246653 0.016081234 -0.049409
000090 0b e4 35 bd 4e 01 65 3c c1 bb f8 3c d8 11 b8 3c
       -0.04440693 0.013977362 0.030362966 0.022469446
0000a0 51 54 62 bc b2 a3 8d 3d da a9 42 bc 5b 74 4f bc
       -0.013814048 0.06915988 -0.011881316 -0.012662019
0000b0 f9 d5 32 3d f3 8e fb bc d0 0d 48 3d 02 24 c8 bb
       0.04366109 -0.030707812 0.048841298 -0.006107808
0000c0 5f fb 76 3d 1c e6 67 bd 39 de 8d 3c a5 51 8e 3d
       0.06029832 -0.056615934 0.017317878 0.06949166
0000d0 43 1c 8c 3d 95 2c 88 3d ef 7d 3f 3c 2d 2e 18 bc
       0.06841328 0.06649128 0.01168774 -0.009288353
0000e0 e5 60 64 bb 27 4d 2e bc 4d e7 1c bd 2f ca 40 3d
       -0.0034847793 -0.010638512 -0.038306523 0.047067817
0000f0 28 31 5e bd a9 cd e1 bc c8 d3 91 bc b2 f2 7d bd
       -0.054246098 -0.027563887 -0.01780118 -0.06199903
000100 e9 02 72 3d a3 54 73 bc 76 00 7e 3d ef 4d 73 bd
       0.059084807 -0.014851722 0.06201216 -0.059400495
000110 86 c5 40 3d 43 16 10 3d 28 5a 57 3d ed 14 4c bc
       0.047063373 0.03517748 0.052576214 -0.012456161
000120 cd a4 51 3d a6 d5 6d bd 61 8b 3e bd 29 1b 04 3d
       0.051182557 -0.05806508 -0.04651964 0.032252464
000130 6f 2b 62 ba af 7c 1e 3d 86 23 97 3c 59 85 80 3d
       -0.0008627688 0.038693126 0.018449556 0.06275434
000140 1a 94 8c 3b fc 0b 7f 3d 02 24 04 3d 1f 17 59 bd
       0.004290116 0.06226729 0.032260902 -0.053000566
000150 0a c8 c2 3c d4 8c 11 bd a7 ca 3e bd 91 65 49 3d
       0.023777027 -0.035534695 -0.046579983 0.049169127
000160 b7 2d 86 3d e2 b0 81 3d 99 45 be bc af 27 0a 3c
       0.06551688 0.06332566 -0.023226546 0.008432313
000170 59 87 26 3c 17 73 3b 3d b0 c4 a9 3b 68 67 1a bd
       0.010164105 0.045764055 0.0051809177 -0.037696272
000180 cd 40 c5 3c ad b9 05 bd cf 52 09 bc d7 52 56 3d
       0.024078751 -0.032647777 -0.0083815595 0.052325096
000190 86 f4 83 bc 8d 82 a0 3c 50 82 ce 3c 98 36 6d 39
       -0.016107809 0.019593501 0.025208622 0.00022622419
0001a0 8d ba c4 bb fd 55 3b 3d 71 dd 82 3c 0d ba 60 3d
       -0.006003684 0.0457363 0.015974732 0.05486493
0001b0 c9 89 9c 3c e4 4b 2f bd e4 47 4f 3d 09 64 72 bd
       0.01910867 -0.042796984 0.05060567 -0.059177432
0001c0 11 59 5c 3c 22 e5 8a 3d ef 86 53 3c 8b ba 72 3d
       0.013448969 0.06781985 0.012910589 0.059259932
0001d0 93 82 0f bd a9 3b 4c 3d 69 de 4c bd 9e 39 0a bd
       -0.035036635 0.049861584 -0.050016794 -0.033746354
0001e0 74 7f 01 3b 87 49 08 3d d2 85 81 bc 0e 90 01 bd
       0.0019759806 0.033273246 -0.01581088 -0.031631522
0001f0 aa f1 64 bd 1e 87 55 3d 17 7a 46 3d 66 fc 27 3c
       -0.05589453 0.05213081 0.048456278 0.010253048
000200 1c 07 36 bd bb 97 9e bb e2 3d 03 3c 59 6c a5 3c
       -0.044440374 -0.004839865 0.0080103595 0.020193266
000210 b6 bb ff 3b 92 a1 1d bb bc 27 c1 3c d6 d7 1d 3d
       0.0078043593 -0.0024052602 0.023578517 0.038535915
000220 04 18 e6 3c df ca a0 3d f1 51 60 bd c3 25 2d 3c
       0.028087623 0.078511946 -0.054765645 0.010568085
000230 c7 38 fc 3c 52 7e f1 3c 03 07 1e 3d 2e 98 1a bd
       0.030788792 0.02947918 0.038580906 -0.037742786
000240 77 f0 df 3a 2e a2 89 3c f6 ff 30 bd 7e 20 6e bd
       0.0017085214 0.016800966 -0.043212853 -0.058136456
000250 83 9d 3a 3d 90 66 cd 3c 4e 5f c2 bc 55 ed 4a bc
       0.04556037 0.02507332 -0.023727085 -0.012385686
000260 46 72 32 3c 97 d8 3a 3d f3 bd 98 3d b8 bb 36 3c
       0.010891503 0.045616712 0.07458105 0.011153154
000270 17 09 13 bd ba b8 c5 3c 8f bc c9 bc dd f0 03 3d
       -0.03589734 0.024135936 -0.024626045 0.032212127
000280 7a b6 92 3c 03 03 ae 3a 54 e1 47 3d 4e 5c d7 bc
       0.017909277 0.0013276044 0.048798874 -0.026289131
000290 72 47 51 bb 92 99 2b 3c f7 05 03 bd 00 8b b3 3c
       -0.0031933454 0.010473626 -0.03198811 0.021916866
0002a0 1e 97 b5 39 e7 83 2c 3d cc 6a b1 3b e2 73 97 3d
       0.000346356 0.04211798 0.0054143425 0.0739515
0002b0 1e 7c b8 3c 9c c3 0c bc a5 ab 0d bd cd cd 85 3c
       0.022520121 -0.008591559 -0.03458752 0.016333485
0002c0 16 82 1c bd 34 6e 4d bc a7 e6 8b 3c 7c 2a 3d 3b
       -0.038209997 -0.0125384815 0.017077757 0.0028864434
0002d0 ff 42 e7 bb 46 df 0a 3d 47 02 ca 3c e1 3d 38 3d
       -0.007057547 0.033904336 0.024659289 0.044980887
0002e0 34 ea 74 3c 8a a7 6e 3d 76 34 0f 3a cc e1 09 bd
       0.0149484165 0.058265246 0.00054628344 -0.033662602
0002f0 f3 f6 f6 bc 1e e6 51 bd 9d 8a 48 3d bc a9 71 3d
       -0.030147051 -0.051244847 0.048960317 0.058999762
000300 ec d7 28 bd a5 70 3f bd 01 a3 7d bd fa b2 7b 3d
       -0.041221544 -0.046738286 -0.06192303 0.061449982
000310 8b e2 03 3d b6 62 cf 3c 9e 6e e0 bc a1 dd 05 3b
       0.03219847 0.025315624 -0.027396496 0.002042629
000320 d2 c6 e6 bc dc 76 30 bd 3e 52 f5 3c 7a 38 3e 3d
       -0.028170977 -0.043082103 0.029946443 0.04644058
000330 55 48 32 3c 85 f6 17 3d 65 d1 23 3c d5 ea d8 3c
       0.010881503 0.037100334 0.009998654 0.026479164
000340 8d 70 49 3d a1 6e 03 bd b3 aa 0a bd c4 78 3e bd
       0.049179602 -0.032087926 -0.033854198 -0.04650189
000350 0e 9e 81 3d b4 3b 1f bd ee 8d 80 3d dc 29 85 3d
       0.06328975 -0.038875297 0.06277071 0.06502125
000360 1d cd d0 3c 66 1f a7 bb 2d 89 c6 bb 15 b0 52 bc
       0.02548843 -0.0051001785 -0.006058833 -0.012859364
000370 84 49 42 3d 29 c2 84 3d 05 80 9d 3d 22 ce 6a 3d
       0.04743339 0.064823456 0.076904334 0.05732549
000380 ad 02 2d 3b 37 9c c5 bc 64 a0 44 bb 04 6f 06 bd
       0.00263993 -0.02412234 -0.0030002827 -0.032820717
000390 e4 10 c5 3b 2d c7 15 3d 64 8f eb 3a af 0e f1 3b
       0.0060139764 0.036566902 0.0017971811 0.0073564867
0003a0 03 0c b5 bc bd 78 98 3c 30 59 8d 3c 9e 1e 00 bc
       -0.022100454 0.01861226 0.017254442 -0.0078198
0003b0 ad 74 b3 bc 0d a8 8d 3b a0 28 2b 3d a5 4c 06 3b
       -0.021906221 0.0043230117 0.04178679 0.002049246
0003c0 89 61 1b bd 8a 41 15 3d 30 a8 05 3d 97 bd 76 ba
       -0.037934814 0.036439456 0.0326311 -0.00094124064
0003d0 d8 3b 5a 3d 4e d7 50 bb 12 09 3b bc b2 dc 76 bc
       0.053279728 -0.0031866613 -0.011415737 -0.015067266
0003e0 65 6f ba bc ac 41 65 3c 1f f9 cc 3a 3c 3a e6 3c
       -0.022758195 0.013992708 0.0015638209 0.02810394
0003f0 7b 51 09 bd 0e 83 34 3d ce 49 89 3c b7 59 f5 bc
       -0.03352497 0.044070296 0.016758826 -0.029950006

output_layer.weight._data i1 [10, 256]
000000 e2 ec 24 c7 30 cc e6 32 4c 5e ee 00 41 b9 d8 21
       -30 -20 36 -57 48 -52 -26 50 76 94 -18 0 65 -71 -40 33
000010 11 e4 d4 eb 60 07 ab c0 22 b1 f6 2e d3 45 e5 4f
       17 -28 -44 -21 96 7 -85 -64 34 -79 -10 46 -45 69 -27 79
000020 0b f6 cf 1d 13 ad 59 07 61 29 16 c0 8e 94 b2 15
       11 -10 -49 29 19 -83 89 7 97 41 22 -64 -114 -108 -78 21
000030 f0 00 b8 05 1c ba e1 4e d1 d6 a9 f8 d9 39 91 07
       -16 0 -72 5 28 -70 -31 78 -47 -42 -87 -8 -39 57 -111 7
000040 2d 0e 02 d9 b6 c2 19 07 e8 35 26 c2 2b 5e fd b2
       45 14 2 -39 -74 -62 25 7 -24 53 38 -62 43 94 -3 -78
000050 2c 3a ee b7 d2 1e df 11 5b 33 15 f8 0f 0b cd f2
       44 58 -18 -73 -46 30 -33 17 91 51 21 -8 15 11 -51 -14
000060 4f 07 d9 e1 d2 0e e3 3a 18 ef 05 ab 3d cb 0a 35
       79 7 -39 -31 -46 14 -29 58 24 -17 5 -85 61 -53 10 53
000070 e9 fd c3 03 2b cd 21 e9 e5 31 36 cc f2 34 a5 c7
       -23 -3 -61 3 43 -51 33 -23 -27 49 54 -52 -14 52 -91 -57
000080 13 26 e5 c9 e6 11 44 37 b3 04 ef bc 33 c7 f7 0a
       19 38 -27 -55 -26 17 68 55 -77 4 -17 -68 51 -57 -9 10
000090 12 df b2 3b 31 2c 35 12 04 e6 81 b7 38 eb ab 45
       18 -33 -78 59 49 44 53 18 4 -26 -127 -73 56 -21 -85 69
0000a0 e1 e8 c3 3f 19 34 0a 9f c3 b7 0d a1 be d4 13 2c
       -31 -24 -61 63 25 52 10 -97 -61 -73 13 -95 -66 -44 19 44
0000b0 cb d7 f6 f5 fb a0 13 ec cf b7 d6 01 f1 d5 bf 07
       -53 -41 -10 -11 -5 -96 19 -20 -49 -73 -42 1 -15 -43 -65 7
0000c0 f7 df f0 1a 28 4d dd f3 5b 72 9e 31 72 fc de 97
       -9 -33 -16 26 40 77 -35 -13 91 114 -98 49 114 -4 -34 -105
0000d0 bf d1 c1 b2 a1 37 cd cf 5b b0 ab eb 1d 10 c2 b1
       -65 -47 -63 -78 -95 55 -51 -49 91 -80 -85 -21 29 16 -62 -79
0000e0 e9 15 41 c4 02 00 be 3f 21 e3 f4 3f ec af 09 b3
       -23 21 65 -60 2 0 -66 63 33 -29 -12 63 -20 -81 9 -77
0000f0 26 dd 39 61 d2 5e c2 24 68 15 35 c5 fa 5a c8 a9
       38 -35 57 97 -46 94 -62 36 104 21 53 -59 -6 90 -56 -87

output_layer.weight._scale f4 [10, 1]
000000 f1 53 e6 3a d9 18 e3 3a 21 7c 01 3b 06 ef df 3a
       0.0017572624 0.0017326131 0.0019757824 0.0017084784
000010 82 1d 18 3b 63 61 15 3b bb 91 e1 3a 63 0a 06 3b
       0.0023210947 0.0022793643 0.0017209569 0.0020452968
000020 66 37 04 3b 44 79 16 3b
       0.0020174622 0.0022960464

output_layer.bias f4 [10]
000000 e1 d5 e8 bc 39 ff 00 bd 01 14 ca 3c 90 d1 2e 3c
       -0.028422298 -0.0314934 0.024667742 0.010670081
000010 f0 be bc 3c 8f 52 59 3d 79 65 4c bc 1a fb 4e bd
       0.023040265 0.05305725 -0.012475365 -0.050532438
000020 ef 1b 81 3d 37 c9 74 3d
       0.06304156 0.059762206
